…
2026-04-15 21:42:18,124 - INFO - eval	x: (3425, 12, 207, 1), y: (3425, 12, 207, 1)
2026-04-15 21:42:18,124 - INFO - test	x: (6850, 12, 207, 1), y: (6850, 12, 207, 1)
2026-04-15 21:42:34,180 - INFO - Saved at ./libcity/cache/dataset_cache/point_based_METR_LA_12_12_0.7_0.1_none_300_False_True_True_True.npz
2026-04-15 21:42:34,180 - INFO - NoneScaler
2026-04-15 21:42:34,180 - INFO - NoneScaler
2026-04-15 21:42:37,262 - INFO - Building simplified MCSTMamba model with just two Mamba blocks
2026-04-15 21:42:37,404 - INFO - Simplified MCSTMamba model configured for device: cuda:0
2026-04-15 21:42:37,792 - INFO - MCSTMamba_optimized(
  (input_proj): Linear(in_features=1, out_features=24, bias=True)
  (tod_embedding): Embedding(288, 24)
  (dow_embedding): Embedding(7, 24)
  (mamba_input_proj): Linear(in_features=168, out_features=96, bias=True)
  (temporal_block): SimpleMambaBlock(
    (layer_norm): LayerNorm((96,), eps=1e-05, elementwise_affine=True)
    (mamba): Mamba(
      (in_proj): Linear(in_features=96, out_features=384, bias=False)
      (conv1d): Conv1d(192, 192, kernel_size=(4,), stride=(1,), padding=(3,), groups=192)
      (act): SiLU()
      (x_proj): Linear(in_features=192, out_features=198, bias=False)
      (dt_proj): Linear(in_features=6, out_features=192, bias=True)
      (out_proj): Linear(in_features=192, out_features=96, bias=False)
    )
    (dropout): Dropout(p=0.1, inplace=False)
    (feed_forward): Sequential(
      (0): Linear(in_features=96, out_features=384, bias=True)
      (1): GELU(approximate='none')
      (2): Dropout(p=0.1, inplace=False)
      (3): Linear(in_features=384, out_features=96, bias=True)
    )
    (ff_norm): LayerNorm((96,), eps=1e-05, elementwise_affine=True)
    (ff_dropout): Dropout(p=0.1, inplace=False)
  )
  (spatial_block): SimpleMambaBlock(
    (layer_norm): LayerNorm((96,), eps=1e-05, elementwise_affine=True)
    (mamba): Mamba(
      (in_proj): Linear(in_features=96, out_features=384, bias=False)
      (conv1d): Conv1d(192, 192, kernel_size=(4,), stride=(1,), padding=(3,), groups=192)
      (act): SiLU()
      (x_proj): Linear(in_features=192, out_features=198, bias=False)
      (dt_proj): Linear(in_features=6, out_features=192, bias=True)
      (out_proj): Linear(in_features=192, out_features=96, bias=False)
    )
    (dropout): Dropout(p=0.1, inplace=False)
    (feed_forward): Sequential(
      (0): Linear(in_features=96, out_features=384, bias=True)
      (1): GELU(approximate='none')
      (2): Dropout(p=0.1, inplace=False)
      (3): Linear(in_features=384, out_features=96, bias=True)
    )
    (ff_norm): LayerNorm((96,), eps=1e-05, elementwise_affine=True)
    (ff_dropout): Dropout(p=0.1, inplace=False)
  )
  (output_proj): Linear(in_features=96, out_features=1, bias=True)
  (final_layer_norm): LayerNorm((96,), eps=1e-05, elementwise_affine=True)
)
2026-04-15 21:42:37,792 - INFO - spatial_embedding	torch.Size([207, 16])	cuda:0	True
2026-04-15 21:42:37,793 - INFO - adaptive_embedding	torch.Size([12, 207, 80])	cuda:0	True
2026-04-15 21:42:37,793 - INFO - combine_weights	torch.Size([2, 96])	cuda:0	True
2026-04-15 21:42:37,793 - INFO - input_proj.weight	torch.Size([24, 1])	cuda:0	True
2026-04-15 21:42:37,793 - INFO - input_proj.bias	torch.Size([24])	cuda:0	True
…
